…
68}},"source":["\n","model1=create_model(number_of_layers=layers[0], neurons_per_layer=neurons, dropout_percent=drpout[0], optimizer=opt,ip_shape=ip,b_norm=norm[0],d_out=out[0],act=acti,lr=lrate,init=ini)\n","history1=evaluate(model1, batch_size=b_size, epochs=epoch)"],"execution_count":24,"outputs":[{"output_type":"stream","text":["Model: \"sequential\"\n","_________________________________________________________________\n","Layer (type)                 Output Shape              Param #   \n","=================================================================\n","dense (Dense)                (None, 1024)              1049600   \n","_________________________________________________________________\n","activation (Activation)      (None, 1024)              0         \n","_________________________________________________________________\n","dense_1 (Dense)              (None, 512)               524800    \n","_________________________________________________________________\n","activation_1 (Activation)    (None, 512)               0         \n","_________________________________________________________________\n","dense_2 (Dense)              (None, 10)                5130      \n","=================================================================\n","Total params: 1,579,530\n","Trainable params: 1,579,530\n","Non-trainable params: 0\n","_________________________________________________________________\n","Epoch 00045: early stopping\n","Model accuracy :  0.811\n"],"name":"stdout"},{"output_type":"display_data","data":{"image/png":"iVBORw0KGgoAAAANSUhEUgAAA7AAAAHwC
…
}},"source":["\n","model2=create_model(number_of_layers=layers[0], neurons_per_layer=neurons, dropout_percent=drpout[0], optimizer=opt,ip_shape=ip,b_norm=norm[0],d_out=out[1],act=acti,lr=lrate,init=ini)\n","history2=evaluate(model2, batch_size=b_size, epochs=epoch)"],"execution_count":39,"outputs":[{"output_type":"stream","text":["Model: \"sequential_7\"\n","_________________________________________________________________\n","Layer (type)                 Output Shape              Param #   \n","=================================================================\n","dense_21 (Dense)             (None, 1024)              1049600   \n","_________________________________________________________________\n","activation_14 (Activation)   (None, 1024)              0         \n","_________________________________________________________________\n","dropout_6 (Dropout)          (None, 1024)              0         \n","_________________________________________________________________\n","dense_22 (Dense)             (None, 512)               524800    \n","_________________________________________________________________\n","activation_15 (Activation)   (None, 512)               0         \n","_________________________________________________________________\n","dense_23 (Dense)             (None, 10)                5130      \n","=================================================================\n","Total params: 1,579,530\n","Trainable params: 1,579,530\n","Non-trainable params: 0\n","_________________________________________________________________\n","Epoch 00067: early stopping\n","Model accuracy :  0.83427775\n"],"name":"stdout"},{"output_type":"display_data","data":{"image/png":"iVBORw0KGgoAAAANSUhEUgAAA7AA
…
}},"source":["\n","model4=create_model(number_of_layers=layers[0], neurons_per_layer=neurons, dropout_percent=drpout[0], optimizer=opt,ip_shape=ip,b_norm=norm[1],d_out=out[1],act=acti,lr=lrate,init=ini)\n","history4=evaluate(model4, batch_size=b_size, epochs=epoch)"],"execution_count":34,"outputs":[{"output_type":"stream","text":["Model: \"sequential_4\"\n","_________________________________________________________________\n","Layer (type)                 Output Shape              Param #   \n","=================================================================\n","dense_12 (Dense)             (None, 1024)              1049600   \n","_________________________________________________________________\n","activation_8 (Activation)    (None, 1024)              0         \n","_________________________________________________________________\n","batch_normalization_1 (Batch (None, 1024)              4096      \n","_________________________________________________________________\n","dropout_3 (Dropout)          (None, 1024)              0         \n","_________________________________________________________________\n","dense_13 (Dense)             (None, 512)               524800    \n","_________________________________________________________________\n","activation_9 (Activation)    (None, 512)               0         \n","_________________________________________________________________\n","dense_14 (Dense)             (None, 10)                5130      \n","=================================================================\n","Total params: 1,583,626\n","Trainable params: 1,581,578\n","Non-trainable params: 2,048\n","_________________________________________________________________\n","Epoch 00037: early stopping\n","Model accuracy :  0.7417778\n"],"name":"stdout"},{"output_type":"display_data","data":{"image/png":"iVBORw0KGgoAAAANSUhEUgAAA
…
}},"source":["\n","model5=create_model(number_of_layers=layers[0], neurons_per_layer=neurons, dropout_percent=drpout[0], optimizer=opt,ip_shape=ip,b_norm=norm[1],d_out=out[0],act=acti,lr=lrate,init=ini)\n","history5=evaluate(model5, batch_size=b_size, epochs=epoch)"],"execution_count":40,"outputs":[{"output_type":"stream","text":["Model: \"sequential_8\"\n","_________________________________________________________________\n","Layer (type)                 Output Shape              Param #   \n","=================================================================\n","dense_24 (Dense)             (None, 1024)              1049600   \n","_________________________________________________________________\n","activation_16 (Activation)   (None, 1024)              0         \n","_________________________________________________________________\n","batch_normalization_3 (Batch (None, 1024)              4096      \n","_________________________________________________________________\n","dense_25 (Dense)             (None, 512)               524800    \n","_________________________________________________________________\n","activation_17 (Activation)   (None, 512)               0         \n","_________________________________________________________________\n","dense_26 (Dense)             (None, 10)                5130      \n","=================================================================\n","Total params: 1,583,626\n","Trainable params: 1,581,578\n","Non-trainable params: 2,048\n","_________________________________________________________________\n","Epoch 00031: early stopping\n","Model accuracy :  0.6821111\n"],"name":"stdout"},{"output_type":"display_data","data":{"image/png":"iVBORw0KGgoAAAANSUhEUgAAA
…
"source":["\n","model6=create_model1(number_of_layers=layers[1], neurons_per_layer=neurons, dropout_percent=drpout[0], optimizer=opt,ip_shape=ip,b_norm=norm[0],d_out=out[0],act=acti,lr=lrate,init=ini)\n","history6=evaluate(model6, batch_size=b_size, epochs=epoch)"],"execution_count":148,"outputs":[{"output_type":"stream","text":["Model: \"sequential_32\"\n","_________________________________________________________________\n","Layer (type)                 Output Shape              Param #   \n","=================================================================\n","dense_120 (Dense)            (None, 1024)              1049600   \n","_________________________________________________________________\n","activation_88 (Activation)   (None, 1024)              0         \n","_________________________________________________________________\n","dense_121 (Dense)            (None, 512)               524800    \n","_________________________________________________________________\n","activation_89 (Activation)   (None, 512)               0         \n","_________________________________________________________________\n","dense_122 (Dense)            (None, 256)               131328    \n","_________________________________________________________________\n","activation_90 (Activation)   (None, 256)               0         \n","_________________________________________________________________\n","dense_123 (Dense)            (None, 128)               32896     \n","_________________________________________________________________\n","activation_91 (Activation)   (None, 128)               0         \n","_________________________________________________________________\n","dense_124 (Dense)            (None, 64)                8256      \n","_________________________________________________________________\n","activation_92 (Activation)   (None, 64)                0         \n","_________________________________________________________________\n","dense_125 (Dense)            (None, 32)                2080      \n","_________________________________________________________________\n","activation_93 (Activation)   (None, 32)                0         \n","_________________________________________________________________\n","dense_126 (Dense)            (None, 10)                330       \n","=================================================================\n","Total params: 1,749,290\n","Trainable params: 1,749,290\n","Non-trainable params: 0\n","_________________________________________________________________\n","Epoch 00048: early stopping\n","Model accuracy :  0.79161114\n"],"name":"stdout"},{"output_type":"display_data","data":{"image/png":"iVBORw0KGgoAAAANSUhEUgAAA7A
…
"source":["\n","model7=create_model1(number_of_layers=layers[1], neurons_per_layer=neurons, dropout_percent=drpout[0], optimizer=opt,ip_shape=ip,b_norm=norm[0],d_out=out[1],act=acti,lr=lrate,init=ini)\n","history7=evaluate(model7, batch_size=b_size, epochs=epoch)"],"execution_count":150,"outputs":[{"output_type":"stream","text":["Model: \"sequential_33\"\n","_________________________________________________________________\n","Layer (type)                 Output Shape              Param #   \n","=================================================================\n","dense_127 (Dense)            (None, 1024)              1049600   \n","_________________________________________________________________\n","activation_94 (Activation)   (None, 1024)              0         \n","_________________________________________________________________\n","dropout_31 (Dropout)         (None, 1024)              0         \n","_________________________________________________________________\n","dense_128 (Dense)            (None, 512)               524800    \n","_________________________________________________________________\n","activation_95 (Activation)   (None, 512)               0         \n","_________________________________________________________________\n","dropout_32 (Dropout)         (None, 512)               0         \n","_________________________________________________________________\n","dense_129 (Dense)            (None, 256)               131328    \n","_________________________________________________________________\n","activation_96 (Activation)   (None, 256)               0         \n","_________________________________________________________________\n","dropout_33 (Dropout)         (None, 256)               0         \n","_________________________________________________________________\n","dense_130 (Dense)            (None, 128)               32896     \n","_________________________________________________________________\n","activation_97 (Activation)   (None, 128)               0         \n","_________________________________________________________________\n","dropout_34 (Dropout)         (None, 128)               0         \n","_________________________________________________________________\n","dense_131 (Dense)            (None, 64)                8256      \n","_________________________________________________________________\n","activation_98 (Activation)   (None, 64)                0         \n","_________________________________________________________________\n","dropout_35 (Dropout)         (None, 64)                0         \n","_________________________________________________________________\n","dense_132 (Dense)            (None, 32)                2080      \n","_________________________________________________________________\n","activation_99 (Activation)   (None, 32)                0         \n","_________________________________________________________________\n","dense_133 (Dense)            (None, 10)                330       \n","=================================================================\n","Total params: 1,749,290\n","Trainable params: 1,749,290\n","Non-trainable params: 0\n","_________________________________________________________________\n","Epoch 00063: early stopping\n","Model accuracy :  0.7506111\n"],"name":"stdout"},{"output_type":"display_data","data":{"image/png":"iVBORw0KGgoAAAANSUhEUgAAA7AA
…
"source":["\n","model9=create_model1(number_of_layers=layers[1], neurons_per_layer=neurons, dropout_percent=drpout[0], optimizer=opt,ip_shape=ip,b_norm=norm[1],d_out=out[1],act=acti,lr=lrate,init=ini)\n","history9=evaluate(model9, batch_size=b_size, epochs=epoch)"],"execution_count":158,"outputs":[{"output_type":"stream","text":["Model: \"sequential_38\"\n","_________________________________________________________________\n","Layer (type)                 Output Shape              Param #   \n","=================================================================\n","dense_162 (Dense)            (None, 1024)              1049600   \n","_________________________________________________________________\n","activation_124 (Activation)  (None, 1024)              0         \n","_________________________________________________________________\n","batch_normalization_17 (Batc (None, 1024)              4096      \n","_________________________________________________________________\n","dropout_56 (Dropout)         (None, 1024)              0         \n","_________________________________________________________________\n","dense_163 (Dense)            (None, 512)               524800    \n","_________________________________________________________________\n","activation_125 (Activation)  (None, 512)               0         \n","_________________________________________________________________\n","batch_normalization_18 (Batc (None, 512)               2048      \n","_________________________________________________________________\n","dropout_57 (Dropout)         (None, 512)               0         \n","_________________________________________________________________\n","dense_164 (Dense)            (None, 256)               131328    \n","_________________________________________________________________\n","activation_126 (Activation)  (None, 256)               0         \n","_________________________________________________________________\n","batch_normalization_19 (Batc (None, 256)               1024      \n","_________________________________________________________________\n","dropout_58 (Dropout)         (None, 256)               0         \n","_________________________________________________________________\n","dense_165 (Dense)            (None, 128)               32896     \n","_________________________________________________________________\n","activation_127 (Activation)  (None, 128)               0         \n","_________________________________________________________________\n","batch_normalization_20 (Batc (None, 128)               512       \n","_________________________________________________________________\n","dropout_59 (Dropout)         (None, 128)               0         \n","_________________________________________________________________\n","dense_166 (Dense)            (None, 64)                8256      \n","_________________________________________________________________\n","activation_128 (Activation)  (None, 64)                0         \n","_________________________________________________________________\n","batch_normalization_21 (Batc (None, 64)                256       \n","_________________________________________________________________\n","dropout_60 (Dropout)         (None, 64)                0         \n","_________________________________________________________________\n","dense_167 (Dense)            (None, 32)                2080      \n","_________________________________________________________________\n","activation_129 (Activation)  (None, 32)                0         \n","_________________________________________________________________\n","dense_168 (Dense)            (None, 10)                330       \n","=================================================================\n","Total params: 1,757,226\n","Trainable params: 1,753,258\n","Non-trainable params: 3,968\n","_________________________________________________________________\n","Epoch 00029: early stopping\n","Model accuracy :  0.67344445\n"],"name":"stdout"},{"output_type":"display_data","data":{"image/png":"iVBORw0KGgoAAAANSUhEUgA
…
urce":["\n","model10=create_model1(number_of_layers=layers[1], neurons_per_layer=neurons, dropout_percent=drpout[0], optimizer=opt,ip_shape=ip,b_norm=norm[1],d_out=out[0],act=acti,lr=lrate,init=ini)\n","history10=evaluate(model10, batch_size=b_size, epochs=epoch)"],"execution_count":160,"outputs":[{"output_type":"stream","text":["Model: \"sequential_39\"\n","_________________________________________________________________\n","Layer (type)                 Output Shape              Param #   \n","=================================================================\n","dense_169 (Dense)            (None, 1024)              1049600   \n","_________________________________________________________________\n","activation_130 (Activation)  (None, 1024)              0         \n","_________________________________________________________________\n","batch_normalization_22 (Batc (None, 1024)              4096      \n","_________________________________________________________________\n","dense_170 (Dense)            (None, 512)               524800    \n","_________________________________________________________________\n","activation_131 (Activation)  (None, 512)               0         \n","_________________________________________________________________\n","batch_normalization_23 (Batc (None, 512)               2048      \n","_________________________________________________________________\n","dense_171 (Dense)            (None, 256)               131328    \n","_________________________________________________________________\n","activation_132 (Activation)  (None, 256)               0         \n","_________________________________________________________________\n","batch_normalization_24 (Batc (None, 256)               1024      \n","_________________________________________________________________\n","dense_172 (Dense)            (None, 128)               32896     \n","_________________________________________________________________\n","activation_133 (Activation)  (None, 128)               0         \n","_________________________________________________________________\n","batch_normalization_25 (Batc (None, 128)               512       \n","_________________________________________________________________\n","dense_173 (Dense)            (None, 64)                8256      \n","_________________________________________________________________\n","activation_134 (Activation)  (None, 64)                0         \n","_________________________________________________________________\n","batch_normalization_26 (Batc (None, 64)                256       \n","_________________________________________________________________\n","dense_174 (Dense)            (None, 32)                2080      \n","_________________________________________________________________\n","activation_135 (Activation)  (None, 32)                0         \n","_________________________________________________________________\n","dense_175 (Dense)            (None, 10)                330       \n","=================================================================\n","Total params: 1,757,226\n","Trainable params: 1,753,258\n","Non-trainable params: 3,968\n","_________________________________________________________________\n","Epoch 00038: early stopping\n","Model accuracy :  0.7646111\n"],"name":"stdout"},{"output_type":"display_data","data":{"image/png":"iVBORw0KGgoAAAANSUhEUgAA
…
